MoonSangHee/models/best_model.pth (torch, 6502 bytes, 5 tensors)

linear1.weight f4 [32, 12]
-0.30854028 -0.7634321 0.04926804 0.29029003 -0.06968288 0.38290507 0.57067215 0.3839084
0.14509012 0.2107598 0.32683435 -0.16890019 -0.05685248 -0.067225106 -0.046737015 0.34098822
0.33564046 0.24119009 0.17121063 -0.11948481 -0.047845572 0.24620283 -0.16663226 0.1491683
-0.21137132 -0.29553115 0.3296229 0.19373462 0.33684525 0.33057064 -0.04701537 0.08981836
-0.10708094 -0.09961617 0.20972227 0.11374566 -0.009400146 -0.21615082 -0.052432876 0.2050513
-0.01321746 -0.15819542 -0.038007114 0.116357855 0.16934298 -0.16050407 0.0197061 -0.23283415
-0.17656484 0.29204515 0.1263311 0.38450682 0.29326114 0.33458903 0.19033872 0.23886687
0.07956631 0.27718675 -0.24069805 0.06343031 -0.43681023 -0.37452176 0.16059263 -0.05894878
0.08979152 -0.15479457 0.008224834 -0.15536505 -0.15146032 -0.4601004 0.0844546 -0.33979166
0.17481282 -0.00054965983 0.23959911 0.035496123 -0.21911523 0.30069122 -0.124090895 -0.087933496
0.22783877 -0.468198 -0.1378978 0.26253018 -0.22287543 -0.12931067 0.042547397 -0.1495145
-0.22521251 0.028099736 -0.23385905 0.041011423 0.100021675 -0.24912581 0.07733134 -0.4921641
0.3023226 -0.37239212 -0.0048863497 0.38605165 -0.403205 0.24200162 -0.29716223 0.046821892
-0.09603323 -0.37574622 -0.18139996 -0.24668266 -0.31239623 0.097821385 0.30392933 -0.028127106
-0.034682635 0.013124787 0.43783233 0.3559942 0.27981567 0.40456477 0.1618293 0.22823061
0.61381906 -0.67613006 0.04904617 0.39259964 0.0036657304 -0.09026466 -0.3551927 0.051427092
0.26313636 0.25884417 -0.4038081 0.14091232 -0.30929205 -0.1399083 0.36480293 0.27342385
-0.10630033 -0.02323154 0.13018464 0.1813538 -0.12394812 0.11098781 -0.15883298 0.33108866
-0.2259318 -0.026518775 -0.02034007 -0.31962755 0.30485013 -0.02054104 -0.10917394 0.28632438
0.2539799 0.19977355 -0.60663754 -0.29647708 -0.12952764 -0.4518066 -0.35007125 -0.08925425
-0.11219878 0.28397658 -0.2085775 0.2468197 0.215554 0.21869972 0.40378752 0.38933453
-0.13924684 -0.29263657 0.13617136 -0.10579144 0.32725415 0.30156997 -0.39439896 -0.24133262
0.15533797 0.041057773 -0.27918184 0.50109047 -0.06160497 -0.02304925 0.3840057 0.2522026
-0.07835041 0.23733734 0.33673546 0.108420946 -0.040844485 0.25014147 -0.1441052 0.06810971
0.45670423 0.15465906 0.17549984 -0.20768446 0.0029395947 0.39679417 -0.06472289 0.36830327
0.27071878 0.116099894 0.08794164 0.50748783 0.25395945 0.14027685 0.09469167 0.24622466
0.11065945 0.39045513 0.068100005 -0.1413408 0.078084044 0.3189821 -0.40325186 0.23523629
-0.034352314 -0.13964272 0.24913572 0.06211398 0.20625505 -0.12867717 -0.17784414 0.21867841
-0.12568471 -0.063534744 -0.26144165 -0.03172245 -0.075714126 -0.17999452 -0.09962545 -0.04061204
0.18717149 -0.10300195 -0.19441277 -0.20293455 0.105816945 -0.4431674 0.19220097 -0.58660007
-0.040785324 -0.27275762 0.3932134 0.3298871 0.23661031 0.053011373 -0.046783593 -0.2131981
-0.137238 0.31270432 -0.0026280435 0.25010207 -0.33251828 -0.31577924 0.03214129 0.06257645
00000000: fef8 9dbe 4970 43bf 49cd 493d e5a0 943e
00000010: e6b5 8ebd 220c c43e 9217 123f a48f c43e
00000020: 8192 143e 6bd1 573e d556 a73e 2cf4 2cbe
00000030: 25de 68bd 51ad 89bd 506f 3fbd 0296 ae3e
00000040: 11d9 ab3e 89fa 763e d751 2f3e 74b4 f4bd
00000050: b8f9 43bd 981c 7c3e a6a1 2abe 93bf 183e
00000060: b971 58be dc4f 97be 55c4 a83e 5e62 463e
00000070: fb76 ac3e 8e40 a93e 3093 40bd b0f2 b73d
00000080: 404d dbbd 9003 ccbd 6fc1 563e 7cf3 e83d
00000090: 1203 1abc a456 5dbe dbc3 56bd f8f8 513e
000000a0: 0c8e 58bc fbfd 21be 59ad 1bbd 074d ee3d
000000b0: 3f68 2d3e 2e5b 24be b06e a13c 136c 6ebe
000000c0: 6acd 34be f186 953e f15c 013e 14de c43e
000000d0: 5326 963e 414f ab3e 27e8 423e 8499 743e
000000e0: a9f3 a23d 6ceb 8d3e 8d79 76be c0e7 813d
000000f0: 97a5 dfbe 51c1 bfbe 6572 243e 4774 71bd
00000100: 9ee4 b73d 7882 1ebe 74c1 063c 0418 1fbe
00000110: 6a18 1bbe 4892 ebbe 89f6 ac3d 2cf9 adbe
00000120: 2202 333e 0c17 10ba 7859 753e 6264 113d
00000130: be5f 60be 33f4 993e 5e23 febd 7a16 b4bd
00000140: 914e 693e a6b7 efbe 1535 0dbe 5b6a 863e
00000150: 7539 64be 046a 04be 2e46 2e3d 541a 19be
00000160: 1c9e 66be 6b31 e63c bf78 6fbe 98fb 273d
00000170: 2ad8 cc3d d61a 7fbe e55f 9e3d effc fbbe
00000180: 07ca 9a3e 2eaa bebe ac1d a0bb 90a8 c53e
00000190: e370 cebe 46cf 773e a625 98be 50c8 3f3d
000001a0: 12ad c4bd cf61 c0be e9c0 39be 619a 7cbe
000001b0: 66f2 9fbe 9456 c83d a09c 9b3e d16a e6bc
000001c0: 610f 0ebd 5909 573c 8f2b e03e df44 b63e
000001d0: 0044 8f3e 1d23 cf3e 94b6 253e 49b5 693e
000001e0: 3f23 1d3f dc16 2dbf a3e4 483d d202 c93e
000001f0: c03c 703b aedc b8bd d1db b5be 37a5 523d
00000200: cfb9 863e 3987 843e efbf cebe 524b 103e
00000210: 875b 9ebe 1f44 0fbe 73c7 ba3e 36fe 8b3e
00000220: fdb3 d9bd 1250 bebc 1f4f 053e d0b4 393e
00000230: 83d8 fdbd 944d e33d 1da5 22be 7484 a93e
00000240: aa5a 67be e73d d9bc 38a0 a6bc 39a6 a3be
00000250: 5115 9c3e af45 a8bc 9696 dfbd 1c99 923e
00000260: a709 823e 7091 4c3e 994c 1bbf d8cb 97be
00000270: e5a2 04be 3253 e7be 8a3c b3be efca b6bd
00000280: 79c8 e5bd 6165 913e 5795 55be 4ebe 7c3e
00000290: 30ba 5c3e d2f2 5f3e 3dbd ce3e db56 c73e
000002a0: b996 0ebe 76d4 95be 8170 0b3e 2fa9 d8bd
000002b0: db8d a73e 6167 9a3e a9ee c9be e61f 77be
000002c0: eb10 1f3e 322c 283d ecf0 8ebe 7747 003f
000002d0: 7e55 7cbd c8d1 bcbc 659c c43e b320 813e
000002e0: 2e76 a0bd 8f08 733e 9768 ac3e cd0b de3d
000002f0: 8c4c 27bd 8b12 803e 5090 13be 1b7d 8b3d
00000300: 23d5 e93e f25e 1e3e 3bb6 333e 3cab 54be
00000310: 37a6 403b 9b28 cb3e 6f8d 84bd 3f92 bc3e
00000320: a79b 8a3e c8c5 ed3d bf1a b43d b9ea 013f
00000330: f906 823e bca4 0f3e b5ed c13d 5122 7c3e
00000340: 6ca1 e23d bce9 c73e 0478 8b3d a5bb 10be
00000350: 87ea 9f3d 9f51 a33e 0777 cebe c8e1 703e
00000360: 03b5 0cbd 80fe 0ebe 6f1d 7f3e 3b6b 7e3d
00000370: 8634 533e f3c3 03be c61c 36be 3ced 5f3e
00000380: 7eb3 00be 811e 82bd aedb 85be 66ef 01bd
00000390: 0210 9bbd 7c50 38be 6e08 ccbd cf58 26bd
000003a0: e2a9 3f3e b0f2 d2bd 2414 47be 13ce 4fbe
000003b0: 8eb6 d83d d6e6 e2be 55d0 443e 6c2b 16bf
000003c0: 830e 27bd e3a6 8bbe 4453 c93e f6e6 a83e
000003d0: f949 723e 7422 593d 27a0 3fbd 9a50 5abe
000003e0: 1e88 0cbe c81a a03e 413b 2cbb 610d 803e
000003f0: d63f aabe d1ad a1be 96a6 033d 1528 803d

linear1.bias f4 [32]
-0.07737622 0.12951894 0.25589618 0.3411609 0.073928535 0.28203282 -0.15236591 0.2588776
0.031512175 0.010419416 -0.36350134 0.27378204 0.33859226 0.26151577 0.4616501 0.3324876
0.13282174 0.29103744 0.29433194 0.23689908 0.38873538 0.25512013 0.06537891 0.5879864
0.408173 0.41594082 0.16791257 0.017159576 0.345407 0.1948146 -0.14564237 -0.042427473
00000000: 6c77 9ebd 9da0 043e d304 833e a4ac ae3e
00000010: d867 973d 9b66 903e cf05 1cbe 9b8b 843e
00000020: e912 013d 33b6 2a3c d91c babe 292d 8c3e
00000030: f75b ad3e 65e5 853e 675d ec3e d13b aa3e
00000040: 6c02 083e dc02 953e adb2 963e ac95 723e
00000050: 5308 c73e 1b9f 823e 61e5 853d 4786 163f
00000060: 0dfc d03e 32f6 d43e 46f1 2b3e 3d92 8c3c
00000070: 30d9 b03e 7a7d 473e 4623 15be 6ec8 2dbd

linear2.weight f4 [16, 32]
0.2440036 0.17014991 0.16104089 0.09046813 0.098518506 -0.14654276 -0.29858357 -0.21372269
-0.20104748 0.053137977 -0.024125548 0.36775416 0.22982685 0.09293732 0.2729695 0.21425344
0.24641888 0.0035242494 0.12747964 -0.26674473 0.2795109 0.3847478 0.23935406 0.07722795
-0.13929044 0.2798455 -0.024546716 0.38302934 0.18451875 -0.94611347 0.2127764 0.084573045
0.28886524 0.09749959 -0.021708285 0.03869305 -0.19441456 0.17641425 0.35568583 0.2370174
0.24820822 -0.27720264 -0.26728785 -0.23494698 0.10829327 -0.2152786 0.13873363 0.0740097
-0.17655674 0.121300384 0.05576968 0.37814146 -0.009254866 -0.54939187 -0.049416844 0.08665754
0.26392892 0.0996456 -0.1696963 -0.34576756 -0.040452145 1.1783646 0.085571915 0.05302475
0.29617557 -0.08878628 0.0011763391 0.09991335 -0.026906872 0.3071676 0.15910739 0.2813834
0.15304635 -0.22709344 -0.17013305 -0.07454456 -0.013225727 -0.020620365 0.08406415 -0.10872655
-0.14695771 0.019971102 0.048636 0.17379336 0.085348606 -0.13457514 -0.051396325 -0.17894576
0.2209286 -0.0857028 -0.09963664 -0.3708984 -0.012125679 1.2560561 0.09108476 0.06392825
0.004270074 0.32174444 0.23211063 0.2018662 0.16712919 -0.3156176 -0.43821183 -0.2746243
-0.07984182 0.15568672 0.20144635 0.35022536 0.16621804 0.21117714 0.24304517 0.20640248
0.02351974 0.29487756 0.06738783 -0.0925321 0.15774582 0.17476454 0.18670411 0.22891732
0.0873889 0.13337855 0.0141887525 0.28528374 0.086619265 -1.0644227 0.25889048 0.08214536
0.1508397 0.26128057 0.06857502 0.08127651 0.013958216 -0.30740356 -0.35062063 -0.11235898
-0.21973775 0.332898 0.17246707 0.2570926 0.38316092 0.21809354 0.28747863 0.20895861
0.2874352 0.27523983 0.0015559734 -0.033974957 0.32236096 0.1668209 0.13866845 0.21511665
0.06431435 0.1441272 0.11024387 0.28424594 0.27644312 -0.9486232 0.22183506 -0.09374638
0.73665816 -0.06162119 0.17506202 0.1561568 -0.07253199 0.34518787 0.25257385 0.14823155
0.18089852 0.174064 -0.06398314 -0.35790616 -0.069000356 -0.25811058 -0.23712888 0.17591411
0.06487105 -0.33714423 -0.06901441 0.42223272 -0.03750983 -0.5625261 0.10746594 -0.15661877
0.038225237 0.20393312 -0.11355769 -0.2545154 0.13686526 1.4191406 -0.20022531 -0.067398146
-0.14756036 0.19650999 0.038900375 0.036081884 0.29242474 -0.4701195 -0.69347346 -0.03447793
-0.13485079 0.2887488 0.49556345 0.16178192 0.45755675 0.30553442 0.3121365 0.17327842
0.12547703 0.43125957 0.02278962 -0.34726283 0.34580532 0.15942745 0.15183236 0.25172725
0.32248822 0.31478465 0.3009027 0.37920287 0.19762757 -1.1571723 0.16780081 0.20824334
0.39557847 -0.3256513 0.27344906 0.16497803 -0.23908216 0.36628056 0.44789794 0.35361353
0.22996782 -0.26362428 -0.64220375 -0.2778587 -0.17862678 -0.3358934 0.03481174 0.024268415
-0.13560867 -0.24918707 0.14618054 0.11126766 -0.036480892 -0.57107484 -0.14561471 0.42824766
0.1039431 0.13505636 -0.40621787 -0.59553176 -0.059423853 1.0933989 -0.4072978 0.32902566
00000000: 14dc 793e c73b 2e3e e7e7 243e 5b47 b93d
00000010: 12c4 c93d 4e0f 16be f2df 98be 1fda 5abe
00000020: 64df 4dbe 35a7 593d f1a2 c5bc 464a bc3e
00000030: bb57 6b3e ec55 be3d a9c2 8b3e 4165 5b3e
00000040: 3b55 7c3e 18f7 663b 068a 023e c492 88be
00000050: 0d1c 8f3e aafd c43e 3b19 753e b029 9e3d
00000060: 27a2 0ebe e947 8f3e 3216 c9bc 6c1c c43e
00000070: 7cf2 3c3e 7e34 72bf 0ee2 593e a234 ad3d
00000080: 25e6 933e ddad c73d 93d5 b1bc 9b7c 1e3d
00000090: 9c14 47be f0a5 343e 741c b63e b0b4 723e
000000a0: 4c2a 7e3e 81ed 8dbe f4d9 88be f195 70be
000000b0: ddc8 dd3d fe71 5cbe 3010 0e3e 6692 973d
000000c0: 4acb 34be 566c f83d bf6e 643d c29b c13e
000000d0: b9a1 17bc f2a4 0cbf 5169 4abd 8279 b13d
000000e0: b121 873e fe12 cc3d dec4 2dbe 7208 b1be
000000f0: 26b1 25bd a7d4 963f 5440 af3d 7b30 593d
00000100: 53a4 973e 95d5 b5bd 642f 9a3a 5f9f cc3d
00000110: cd6b dcbc 1245 9d3e 0ced 223e 7c11 903e
00000120: 2fb8 1c3e 2f8b 68be 5c37 2ebe d1aa 98bd
00000130: b8b0 58bc 0aec a8bc d329 ac3d 07ac debd
00000140: 157c 16be 709a a33c 8b36 473d e3f6 313e
00000150: 40cb ae3d 11ce 09be f484 52bd 8f3d 37be
00000160: 1b3b 623e f384 afbd 4b0e ccbd 65e6 bdbe
00000170: c9aa 46bc 72c6 a03f a68a ba3d d0ec 823d
00000180: faeb 8b3b b0bb a43e 69ae 6d3e 03b6 4e3e
00000190: ea23 2b3e a198 a1be 4d5d e0be 8e9b 8cbe
000001a0: 1c84 a3bd 576c 1f3e f447 4e3e bd50 b33e
000001b0: 1035 2a3e d23e 583e d5e0 783e 2c5b 533e
000001c0: 78ac c03c 31fa 963e a102 8a3d 7881 bdbd
000001d0: 1f88 213e 7af5 323e 5d2f 3f3e 4d69 6a3e
000001e0: f4f8 b23d 6394 083e f177 683c b610 923e
000001f0: 7165 b13d 013f 88bf 4b8d 843e d43b a83d
00000200: b975 1a3e 91c6 853e 0f71 8c3d 4d74 a63d
00000210: 00b1 643c 0064 9dbe 8c84 b3be 771c e6bd
00000220: ef02 61be 9b71 aa3e 359b 303e a4a1 833e
00000230: ab2d c43e ea53 5f3e 6630 933e 3ff9 553e
00000240: b52a 933e 3cec 8c3e cef1 cb3a 5329 0bbd
00000250: 7f0c a53e 19d3 2a3e 1aff 0d3e 8a47 5c3e
00000260: 3eb7 833d 1596 133e 8ac7 e13d af88 913e
00000270: f489 8d3e f8d8 72bf bb28 633e 1afe bfbd
00000280: a195 3c3f 8066 7cbd 7543 333e 91e7 1f3e
00000290: a78b 94bd 77bc b03e 5c51 813e 03ca 173e
000002a0: 763d 393e d53d 323e 9809 83bd 7a3f b7be
000002b0: 0f50 8dbd 1227 84be ead1 72be d422 343e
000002c0: 1ddb 843d 2b9e acbe 6d57 8dbd e32e d83e
000002d0: e8a3 19bd b601 10bf 1a17 dc3d ac60 20be
000002e0: 1192 1c3d d8d3 503e ef90 e8bd d84f 82be
000002f0: 6826 0c3e 66a6 b53f dd07 4dbe 0a08 8abd
00000300: 101a 17be ea39 493e 0056 1f3d 99ca 133d
00000310: b2b8 953e 81b3 f0be 7a87 31bf bb38 0dbd
00000320: 5316 0abe e2d6 933e 7eba fd3e 29aa 253e
00000330: e144 ea3e 026f 9c3e 5bd0 9f3e e66f 313e
00000340: 0d7d 003e 0ece dc3e 4cb1 ba3c 6fcc b1be
00000350: 650d b13e f340 233e f179 1b3e 65e2 803e
00000360: 2d1d a53e 742b a13e eb0f 9a3e e126 c23e
00000370: e25e 4a3e 391e 94bf fad3 2b3e be3d 553e
00000380: 4389 ca3e c4bb a6be 8401 8c3e 00f0 283e
00000390: f4d1 74be 2089 bb3e e152 e53e d50c b53e
000003a0: af7c 6b3e c3f9 86be 7767 24bf 7f43 8ebe
000003b0: f0e9 36be 38fa abbe c196 0e3d 8ece c63c
000003c0: 00dd 0abe e52a 7fbe 5ab0 153e 4de0 e33d
000003d0: fd6c 15bd f631 12bf 061c 15be 4743 db3e
000003e0: 1fe0 d43d 374c 0a3e cafb cfbe c574 18bf
000003f0: 6d66 73bd 7ff4 8b3f 5689 d0be 0d76 a83e

linear2.bias f4 [16]
0.1503061 -0.059759706 0.117317274 0.06276538 -0.009443398 -0.14557639 0.20140164 0.028255405
-0.014609205 0.15244395 -0.1451329 0.23617907 -0.1492749 0.0153620355 0.07632119 0.1725315
00000000: d8e9 193e 98c6 74bd 0a44 f03d 238b 803d
00000010: 7bb8 1abc fa11 15be 3b3c 4e3e e177 e73c
00000020: 725b 6fbc 441a 1c3e b89d 14be edd8 713e
00000030: 85db 18be 0cb1 7b3c 494e 9c3d 19ac 303e

fc.weight f4 [1, 16]
-0.3965638 0.68879735 0.4567541 -0.40872827 -0.28342032 0.50817853 -0.23560096 0.5255499
-0.35633418 0.49915224 0.10767675 -0.43730545 -0.24670044 0.7224786 0.5437201 0.40254498
00000000: 690a cbbe 0655 303f acdb e93e d544 d1be
00000010: 781c 91be fd17 023f 6141 71be 708a 063f
00000020: 6f71 b6be e290 ff3e a185 dc3d 80e6 dfbe
00000030: 0a9f 7cbe 5cf4 383f 3e31 0b3f 601a ce3e
