KangYunGu/best_model.pth (torch, 30647 bytes, 7 tensors)

linear1.weight f4 [32, 13]
0	0xbeb9217a	-0.36158353
1	0xbe05407a	-0.13012877
2	0xbd47ee3e	-0.04881119
3	0xbdfe49de	-0.12416433
4	0xbe66d795	-0.22543176
5	0xbe5a52e8	-0.21320689
6	0xbe22a429	-0.15882935
7	0xbd405809	-0.046958957
8	0x3d5430eb	0.051804464
9	0x3e39f391	0.1815932
10	0xbe878e43	-0.26475725
11	0x3e6325b9	0.22182359
12	0xbea79098	-0.32727504
13	0xbd01b542	-0.031667
14	0x3df776fb	0.120832406
15	0x3da99c5d	0.08281777
16	0xbe17bf3a	-0.14819041
17	0xbe27c185	-0.16382416
18	0x3e4a61b9	0.1976384
19	0x3eac3cad	0.33640042
20	0xbe5b4188	-0.21411717
21	0x3ebaabf6	0.3645932
22	0xbca60ce5	-0.02026982
23	0x3e066784	0.13125426
24	0x3eaf5888	0.3424723
25	0x3cffe94a	0.03123917
26	0xbdb4b324	-0.08823231
27	0x3e68bd09	0.22728361
28	0x3e962ad4	0.2932955
29	0x3c4e037e	0.012574075
30	0xbea71f46	-0.32641047
31	0x3e8a52f1	0.27016404
32	0x3dbbca1e	0.0916941
33	0x3e800f79	0.25011805
34	0x3d53df76	0.05172678
35	0x3e03576f	0.12826322
36	0x3e250cd8	0.16118181
37	0xbe4f71db	-0.20258276
38	0xbe020fdc	-0.12701362
39	0x3e4bc8ad	0.1990077
40	0x3eb55c7d	0.35422125
41	0x3dc9ddca	0.09856756
42	0x3e5454fb	0.20735542
43	0x3e8986bd	0.2686061
44	0xbe1ea425	-0.15492304
45	0x3c662ec6	0.014049238
46	0x3dd7793b	0.1052117
47	0x3e4a76c2	0.19771865
48	0x3e398158	0.18115747
49	0x3d36f573	0.044667672
50	0x3e07e8de	0.13272426
51	0xbea39afc	-0.3195418
52	0x3e920521	0.28519538
53	0xbe3dd97b	-0.18539993
54	0x3cb2d4e8	0.021830037
55	0x3eb2d59f	0.34928605
56	0xbd699126	-0.05702319
57	0x3e95ee24	0.2928325
58	0x3e10a230	0.1412437
59	0xbe885161	-0.26624587
60	0x3e9ad423	0.30239972
61	0xbd818810	-0.0632478
62	0x3e94f19d	0.29090586
63	0xbe60b79e	-0.21945044
64	0x3dc6b102	0.0970173
65	0xbe7625fe	-0.2403793
66	0x3cf23dcb	0.02957048
67	0x3ccca618	0.024981543
68	0x3cc3b158	0.023888275
69	0xbe291c78	-0.16514766
70	0x3dd14cc6	0.102197215
71	0xbdee1f84	-0.11627105
72	0x3e04f273	0.12983112
73	0xbe466394	-0.19373924
74	0x3e550065	0.20800932
75	0xbe50bd0b	-0.20384614
76	0xba97b9f5	-0.0011575805
77	0x3eb1478e	0.34624904
78	0xbe87643c	-0.2644366
79	0xbf030bd3	-0.5118992
80	0xbe088f55	-0.13335927
81	0xbe34fd52	-0.17674759
82	0x3eba4cf4	0.36386836
83	0x3e27d30a	0.16389099
84	0x3e923d04	0.28562176
85	0x3e3707a2	0.17874005
86	0x3e126bad	0.14298888
87	0x3e03866e	0.1284425
88	0x3b9b0e71	0.004731946
89	0x3e2b39e3	0.16721301
90	0xbe48916f	-0.19586729
91	0x3e5860b5	0.21130641
92	0xbe432fba	-0.19061175
93	0x3deb4adb	0.11488887
94	0x3d988e0c	0.07448968
95	0xbf1809b5	-0.5938981
96	0x3db80d21	0.08986879
97	0xbe5cb197	-0.2155212
98	0x3e3a0b09	0.18168272
99	0xbe243df3	-0.16039257
100	0x3e944807	0.28961203
101	0xbe135a84	-0.14389998
102	0xbdf1ef27	-0.11813193
103	0xbe859d41	-0.26096538
104	0xbe1f05bc	-0.15529531
105	0x3e0e9635	0.13924487
106	0x3e26acd0	0.1627686
107	0x3e033fd1	0.12817313
108	0xbe027232	-0.12738875
109	0xbcf1b34f	-0.029504446
110	0xbdc85ce3	-0.09783342
111	0x3d0b6ea0	0.034041047
112	0x3e8b1235	0.27162328
113	0x3e67ddb0	0.22643161
114	0x3d7beb42	0.061503656
115	0x3e9cda45	0.30635276
116	0xbeee9b6e	-0.46602958
117	0xbda55ab6	-0.08073942
118	0xbcf7b3aa	-0.030237038
119	0xbe6c73df	-0.23091076
120	0x3d740fe0	0.059585452
121	0x3d457529	0.048207436
122	0xbe76e090	-0.24109101
123	0x3e69b025	0.228211
124	0x3ea1b32f	0.3158202
125	0x3e28c3d6	0.16480955
126	0x3e26415b	0.16235869
127	0xbe013804	-0.12619025
128	0x3e32b621	0.17452289
129	0xbdb9ab5d	-0.09065888
130	0xbd8fcdc8	-0.070216715
131	0xbe88a8ea	-0.2669137
132	0xbcdc3b3f	-0.02688372
133	0xbe3e97db	-0.18612616
134	0xbe49bcdf	-0.19700955
135	0x3e8cf7c9	0.27532795
136	0xbcccc1f8	-0.024994835
137	0x3da855a7	0.08219462
138	0xbd97b7b4	-0.074080855
139	0x3e954eb7	0.29161617
140	0xbcf5f9e8	-0.030026391
141	0x3d823ba0	0.06359029
142	0xbe823ea6	-0.25438422
143	0x3e3ad491	0.1824515
144	0xbdc0cd22	-0.09414126
145	0x3ddabb24	0.106802255
146	0x3d6e75cd	0.058217812
147	0xbe8a9ddd	-0.27073565
148	0x3e4c9256	0.19977698
149	0xbd77537c	-0.06038235
150	0xbe158275	-0.14600547
151	0xbe86bb86	-0.26314944
152	0xbd745982	-0.059655674
153	0xbd6f60cb	-0.05844192
154	0x3eafecbc	0.34360301
155	0xbe903cc5	-0.28171363
156	0xbe123c54	-0.14280826
157	0x3e131008	0.14361584
158	0xbde96eda	-0.113980964
159	0x3eaa67d0	0.33282328
160	0x3cab970e	0.020946052
161	0x3e98c9dd	0.2984151
162	0xbd0ce30f	-0.034396227
163	0x3dd93adb	0.10606929
164	0xbea37929	-0.31928375
165	0xbd332b81	-0.04374266
166	0x3e8c25b5	0.27372518
167	0x3ecf7f1e	0.4052667
168	0x3e684ab4	0.22684747
169	0xbd11c079	-0.035583947
170	0xbe287a95	-0.16453011
171	0x3e34228b	0.17591302
172	0x3dee1558	0.11625165
173	0x3e0fc299	0.14039077
174	0x3ddb291c	0.107012
175	0x3e5992ce	0.21247408
176	0xbd80ff03	-0.062986396
177	0xbe14fc36	-0.14549336
178	0x3d8f81f9	0.07007212
179	0x3e5a03d4	0.21290523
180	0xbe7812af	-0.24225877
181	0xbe187729	-0.14889206
182	0xbc0594ce	-0.008153154
183	0x3cf39301	0.029733183
184	0x3b21cf80	0.002469033
185	0x3d31c52c	0.04340093
186	0x3b82fcce	0.003997422
187	0xbd8a128a	-0.06741817
188	0x3cdaf653	0.026728785
189	0x3d02998c	0.031884715
190	0x3c776180	0.015098929
191	0x3da1309d	0.078706004
192	0x3dee692c	0.11641154
193	0x3f1239d7	0.57119507
194	0xbf1f1e5e	-0.6215571
195	0xbe7c887f	-0.24661444
196	0x3e2c4912	0.16824749
197	0xbdb3c7bb	-0.0877833
198	0xbdf357f7	-0.11882012
199	0xbe82cf91	-0.25548986
200	0xbd4290ca	-0.047501363
201	0xbec9e985	-0.39435974
202	0xbd76af28	-0.060225636
203	0xbf11551a	-0.5677048
204	0xbdde869d	-0.10865519
205	0xbe2e2922	-0.17007878
206	0xbe765890	-0.24057221
207	0xbd50df56	-0.05099424
208	0xbd58482b	-0.0528032
209	0xbbcd513b	-0.006265787
210	0x3e70992e	0.23495933
211	0x3e563e2d	0.20922156
212	0xbdaf4f6b	-0.0856007
213	0xbd366a9b	-0.04453526
214	0x3e8040a2	0.2504931
215	0x3e78ecee	0.24309132
216	0x3e200b68	0.15629351
217	0x3e55eff4	0.20892316
218	0x3deeeaed	0.11665902
219	0x3daa114e	0.08304082
220	0xbddda5a8	-0.10822612
221	0xbe139355	-0.14411671
222	0xbd76b2ac	-0.06022899
223	0x3e4107c6	0.18850622
224	0xbdf59122	-0.119905725
225	0x3d3c7196	0.04600676
226	0x3e5d3876	0.2160357
227	0xbd720b1c	-0.059092626
228	0x3ccf9f70	0.02534458
229	0xbd8bbd64	-0.06823233
230	0x3d867d48	0.06566864
231	0x3e2dc837	0.16970907
232	0x3ebd60db	0.36987957
233	0xbe5f4e7b	-0.21807282
234	0xbdd06239	-0.101749845
235	0x3d89e0c7	0.06732326
236	0xbcf550c8	-0.029945746
237	0x3d822119	0.06353969
238	0xbdf781fd	-0.1208534
239	0x3e86d521	0.2633448
240	0x3e708b95	0.23490746
241	0x3d4fe0f4	0.05075164
242	0x3e8d52da	0.27602273
243	0xbcd5fceb	-0.026121577
244	0x3e4ee5bd	0.20204826
245	0xbe7c09a1	-0.24613048
246	0xbe221b84	-0.15830809
247	0x3e3ae3fc	0.18251032
248	0xbd0d92a9	-0.034563694
249	0x3dfb8894	0.122819096
250	0x3d89c851	0.067276604
251	0x3d1337d1	0.035941903
252	0x3e2a3dbb	0.16625111
253	0x3e811f52	0.25219208
254	0xbe7d4804	-0.24734503
255	0xbbe04c3c	-0.0068450253

linear1.bias f4 [32]
0	0x3dc5e88a	0.09663494
1	0x3e90baad	0.28267422
2	0x3e414e84	0.18877608
3	0x3e96ea08	0.29475427
4	0xbdf2fe3e	-0.11864899
5	0x3ecbcbb0	0.3980384
6	0x3d2f92d4	0.042864636
7	0xbdb9b7c4	-0.09068254
8	0x3bf83101	0.007574201
9	0x3eaa7e7c	0.33299625
10	0x3e72f291	0.23725344
11	0x3e337718	0.175259
12	0xbc8eb0d5	-0.017418304
13	0xbdf00ace	-0.11720811
14	0x3d96307b	0.07333466
15	0xbda3f3ac	-0.08005461
16	0x3d0f9529	0.03505436
17	0x3e46e0be	0.1942167
18	0xbd1fe08d	-0.039032508
19	0x3b0a1911	0.002107207
20	0x3e012283	0.12610821
21	0x3e3cacec	0.1842534
22	0x3ea54694	0.3228041
23	0x3e19c953	0.15018205
24	0x3e42fb80	0.19041252
25	0x3d5a8a58	0.05335459
26	0x3e134ab5	0.14383967
27	0xbd2dbe18	-0.042417616
28	0x3e9a5a4b	0.30147013
29	0xbe159bf5	-0.14610274
30	0x3e80496d	0.2505602
31	0x3cf49bcc	0.029859446

linear2.weight f4 [128, 32]
0	0xbe1dd430	-0.15412974
1	0xbc985a32	-0.018597696
2	0x3e49961b	0.19686167
3	0xbdd74f47	-0.10513168
4	0x3d7e1af1	0.062037412
5	0x3e1ac3f2	0.1511381
6	0xbe77b38d	-0.24189587
7	0x3d20e96f	0.03928512
8	0xbe824065	-0.25439754
9	0x3dff6d6b	0.12472042
10	0xbcfd22f7	-0.030900462
11	0x3e1526a1	0.14565517
12	0x3db4b879	0.08824248
13	0xbcb79961	-0.022412004
14	0xbea5e864	-0.32403862
15	0xbd49c97d	-0.04926442
16	0x3cda82e3	0.02667374
17	0x3cb5b2d0	0.022179991
18	0x3e0d7361	0.13813545
19	0xbd735f50	-0.05941707
20	0xbd842cc6	-0.06453852
21	0x3e08c916	0.13357958
22	0xbd1a5e66	-0.03768768
23	0x3d0f9b85	0.035060424
24	0x3d94de50	0.07268965
25	0xbdadf3c6	-0.08493762
26	0xbc993c98	-0.018705651
27	0xbc72235c	-0.014778938
28	0x3dbf8683	0.09351828
29	0x3d0652cd	0.03279381
30	0x3d4f0dab	0.050550144
31	0x3dce2bfa	0.100669816
32	0x3ee6af6e	0.45055717
33	0x3e313b4c	0.17307776
34	0xbc83cdb9	-0.016089307
35	0xbe405687	-0.18783008
36	0x3dff14cb	0.12455138
37	0xbe8f41b1	-0.27979806
38	0x3e0cf9bb	0.1376714
39	0xbf148888	-0.5802083
40	0xbdb01fd2	-0.08599819
41	0x3df23726	0.11826925
42	0xbd689615	-0.056783754
43	0xbe31e2c4	-0.1737166
44	0xbd50ba1d	-0.05095874
45	0x3e1d3b12	0.15354565
46	0xbf3c5874	-0.7357247
47	0xbe62fad6	-0.22165999
48	0xbdb9795d	-0.09056351
49	0xbd1642a5	-0.03668465
50	0x3e5f7100	0.2182045
51	0xbe276fc3	-0.16351227
52	0x3e91a8fe	0.28449243
53	0x3c212a8f	0.009836807
54	0x3d6290d4	0.0553139
55	0x3ed8751c	0.42276847
56	0x3de7933e	0.11307381
57	0x3d818e1c	0.06325933
58	0xbe646354	-0.22303516
59	0xbed23525	-0.4105617
60	0x3d987779	0.074446626
61	0x3e7fc36e	0.24976894
62	0xbd928213	-0.07153716
63	0x3e4bd4e6	0.19905433
64	0x3de98bb7	0.114036016
65	0x3ebf7344	0.37392628
66	0xbe911fec	-0.28344667
67	0xbda6c6ab	-0.08143362
68	0x3c4c653b	0.012475307
69	0x3c27551e	0.010213165
70	0xbdddeafa	-0.10835834
71	0xbed65aee	-0.4186625
72	0x3c875c82	0.016523603
73	0xbe64e5b3	-0.22353248
74	0xbe57943d	-0.21052642
75	0x3eb4ee69	0.35338143
76	0x3e2f51f1	0.17121102
77	0x3e9ad390	0.30239534
78	0xbea17d02	-0.31540686
79	0x3e076955	0.13223775
80	0x3ce1be05	0.027556429
81	0x3e686501	0.2269478
82	0x3e80b4dd	0.25137988
83	0xbec30702	-0.38091284
84	0xbeaa03fc	-0.33206165
85	0xbe94cfd6	-0.29064816
86	0x3ea0c741	0.3140202
87	0xbbdbcd98	-0.0067078583
88	0x3dc8261d	0.097728945
89	0xbee4d001	-0.44689944
90	0xbe083fb0	-0.13305545
91	0x3d8d04e1	0.06885696
92	0xbe4d5a1b	-0.20053904
93	0xbe89e8fa	-0.2693556
94	0xbf06efce	-0.5270966
95	0x3e726f74	0.23675328
96	0x3d574aba	0.0525615
97	0xbe0039fd	-0.12522121
98	0x3da64282	0.08118154
99	0xbd95e451	-0.073189385
100	0x3e263de4	0.16234547
101	0x3d19f3cb	0.037586015
102	0xbe1478d6	-0.1449922
103	0xbd6c6f45	-0.057723302
104	0xbd213759	-0.039359424
105	0x3d4f0c76	0.050548993
106	0x3e07547c	0.13215822
107	0xbdcd320f	-0.100193135
108	0x3e43bb71	0.19114472
109	0xbd0acbfa	-0.033885933
110	0xbeb4499f	-0.35212418
111	0x3b22503a	0.0024767057
112	0x3e379a3d	0.17929931
113	0xbd71d517	-0.05904111
114	0x3e616e25	0.22014673
115	0xbe116536	-0.14198765
116	0x3dbad243	0.091221355
117	0xbd7d0914	-0.061776236
118	0x3e195fb1	0.1497791
119	0x3d5c1dd8	0.0537394
120	0x3e3a2078	0.18176448
121	0xbcab059f	-0.020876704
122	0x3e5b1e56	0.21398291
123	0x3dd2003c	0.10253951
124	0xbcf3fc92	-0.02978352
125	0x3d9b9e99	0.075986095
126	0x3e30c785	0.1726361
127	0x3dc03ba0	0.093863726
128	0x3e84c7a7	0.25933573
129	0x3c435da9	0.011924186
130	0xbe6a8721	-0.2290311
131	0x3dd121aa	0.10211499
132	0xbac973b1	-0.0015369562
133	0x3d951e53	0.072811745
134	0x3b266366	0.0025388836
135	0x3d848b51	0.06471885
136	0x3e3afec2	0.18261245
137	0x3e4c881f	0.19973801
138	0x3dd80842	0.1054845
139	0x3d98d24d	0.07461987
140	0xbe8a14fc	-0.26969135
141	0xbe4c3a2a	-0.19944063
142	0x3f070a08	0.5274968
143	0x3e704aaf	0.2346599
144	0x3d9619d1	0.07329143
145	0xbd5516a8	-0.05202356
146	0xbe2840fb	-0.16431038
147	0xbc01474d	-0.007890535
148	0xbd227920	-0.039666295
149	0xbe073858	-0.13205087
150	0xbe08e3b4	-0.13368112
151	0x3e567666	0.20943603
152	0x3e14d3a0	0.14533854
153	0x3e480987	0.19534884
154	0xbe29a153	-0.16565447
155	0x3d8497ec	0.06474289
156	0x3e075ff7	0.13220201
157	0x3d55c5bd	0.05219053
158	0x3d943f7a	0.0723867
159	0xbe31cc0c	-0.17362994
160	0xbc38fa54	-0.011290152
161	0x3e45be92	0.19310978
162	0xbdbabddf	-0.09118246
163	0x3e5403e8	0.20704615
164	0x3e5f24ce	0.21791384
165	0xbdc132a6	-0.094334885
166	0x3cd1867b	0.02557682
167	0xbdae2954	-0.085039765
168	0xbcf786e6	-0.030215692
169	0xbdcc2cde	-0.09969495
170	0x3c025774	0.007955421
171	0xbd728e41	-0.059217695
172	0x3d44e8aa	0.04807345
173	0x3e859570	0.26090574
174	0xbe5b1f3f	-0.21398638
175	0x3d53ce5f	0.051710483
176	0xbdee1197	-0.11624449
177	0x3d582a66	0.05277481
178	0x3c48e9da	0.012262786
179	0xbe4a8b70	-0.19779754
180	0xbcc24413	-0.023714101
181	0x3cfccc43	0.030859118
182	0xbc852f99	-0.016258048
183	0xbe0d58d9	-0.13803424
184	0xbc6d7771	-0.014493809
185	0xbded7da9	-0.115962334
186	0x3e50680d	0.20352192
187	0x3e3cce4c	0.18438071
188	0xbd468141	-0.04846311
189	0x3e010a0e	0.12601492
190	0x3c8b1ed0	0.016982466
191	0x3d299255	0.04139932
192	0xbe7614ea	-0.24031416
193	0x3d62beeb	0.055357855
194	0xbdcce178	-0.10003942
195	0x3df49292	0.119420186
196	0x3d90195f	0.07036089
197	0xbe079d8f	-0.13243698
198	0xbdcc15fa	-0.09965129
199	0x3e2aa928	0.1666609
200	0x3d70aa37	0.05875608
201	0x3ccd99ee	0.025097813
202	0x3d053a1a	0.032526113
203	0x3c6f9ede	0.014625279
204	0x3d29a880	0.04142046
205	0x3dfcccbd	0.12343738
206	0xbeeb935e	-0.4601087
207	0xbf07f897	-0.53113693
208	0x3c318124	0.010834012
209	0x3e6a89dc	0.22904152
210	0x3da36ba1	0.07979513
211	0x3cd33b9f	0.025785265
212	0xbdb10d27	-0.08645087
213	0xbd0c4dc3	-0.034253847
214	0xbdfdf999	-0.124011226
215	0x3db52773	0.08845415
216	0xbcdac4af	-0.026705114
217	0xbda8157c	-0.08207223
218	0x3e627c4e	0.22117731
219	0x3e9e7e95	0.3095595
220	0x3e32a007	0.17443858
221	0x3ea22694	0.31670058
222	0x3e1d200c	0.15344256
223	0x3df616da	0.12016077
224	0x3c9285cf	0.01788607
225	0x3de77554	0.113016754
226	0x3cf0154f	0.029307036
227	0x3e07d321	0.13264133
228	0x3e323a2e	0.17405006
229	0x3df8b993	0.121447705
230	0x3dd21905	0.10258678
231	0x3d677016	0.056503378
232	0xbe372070	-0.17883468
233	0x3c6e06bd	0.014527974
234	0x3db9b73b	0.090681516
235	0xbdab446d	-0.083626606
236	0x3de4175b	0.11137267
237	0xbd629ea8	-0.055327088
238	0xbf05b8d4	-0.5223515
239	0xbdf38fdd	-0.11892674
240	0xbd33f993	-0.043939184
241	0x3d6a5063	0.05720557
242	0x3e50781f	0.20358323
243	0xbbeb90af	-0.0071888785
244	0xbe627766	-0.2211586
245	0x3ca1908b	0.019722244
246	0x3dbff656	0.09373157
247	0x3ccd5a0e	0.025067355
248	0x3dc6c51d	0.09705565
249	0x3d8b9709	0.06815917
250	0xbdd667c1	-0.10469008
251	0x3e160179	0.14649
252	0x3e42e99f	0.19034432
253	0x3e5b7aeb	0.21433608
254	0x3e14d3e1	0.1453395
255	0x3da2c344	0.079474

linear2.bias f4 [128]
0	0x3dac7b7d	0.08421991
1	0xbd8d8c4c	-0.06911525
2	0x3e5b3e18	0.21410406
3	0xbe02180a	-0.12704483
4	0x3dd32ada	0.10310908
5	0x3e60800f	0.2192385
6	0xbd3e21ab	-0.046418827
7	0xbdba80a6	-0.09106569
8	0xbbde40c0	-0.006782621
9	0x3e01b6f0	0.12667441
10	0x3e099ee0	0.13439512
11	0x3d95d3f7	0.0731582
12	0x3e37d878	0.1795367
13	0x3ccf0af1	0.025273772
14	0xbdd96ac6	-0.106160685
15	0x3dc604c7	0.0966888
16	0xbd90deb5	-0.07073728
17	0x3e2b0bf3	0.16703777
18	0x3d528236	0.05139371
19	0x3e544a4f	0.20731471
20	0x3e14b2b8	0.14521301
21	0x3e03b861	0.12863304
22	0xbdb88d2d	-0.09011302
23	0x3dce9551	0.100870736
24	0x3e5faa2a	0.21842256
25	0x3dd27f1d	0.10278151
26	0x3dee8d62	0.116480604
27	0x3d5cb4cc	0.05388336
28	0xbe01fcf0	-0.12694144
29	0x3e1d574c	0.15365332
30	0x3d5b6194	0.053559855
31	0xbe143096	-0.14471659
32	0xbdfdcbd5	-0.123923935
33	0x3e584fac	0.21124142
34	0x3c2464f9	0.010033839
35	0xbbf9593a	-0.0076095136
36	0xbe151703	-0.1455956
37	0x3e55329a	0.20820084
38	0x3e1aa875	0.15103324
39	0xbc3ce8b7	-0.011530093
40	0xbd90a079	-0.07061858
41	0x3e734a0c	0.23758715
42	0x3e0d2735	0.13784488
43	0x3e1583ef	0.1460111
44	0xbc86a632	-0.01643667
45	0x3d8b0052	0.067871705
46	0xbe4fde21	-0.20299579
47	0x3d4876cc	0.04894142
48	0x3d351533	0.04420967
49	0x3e12ede2	0.14348558
50	0x3e17f588	0.14839756
51	0xbbd77312	-0.0065749967
52	0x3e1943f1	0.14967324
53	0x3af04a64	0.0018332717
54	0xbcf36557	-0.029711409
55	0x3cc1ca1b	0.023655942
56	0xbd566f9d	-0.052352536
57	0x3e66a1d8	0.22522676
58	0x3e26909e	0.16266105
59	0x3e2f354e	0.17110178
60	0x3ca4626e	0.020066466
61	0xbdc1c830	-0.09462011
62	0xbd5fe797	-0.05466422
63	0x3dd86c99	0.10567588
64	0xbe039e92	-0.12853459
65	0x3e2854f9	0.16438664
66	0xbcd6be0c	-0.026213668
67	0xbcea7fd3	-0.028625404
68	0xbdb29595	-0.08719937
69	0x3e1ce4d8	0.15321672
70	0x3e48fbae	0.19627258
71	0x3e8680be	0.26270097
72	0x3e090c3a	0.1338357
73	0x3e9b96b5	0.30388418
74	0x3e170613	0.14748411
75	0xbd83efe9	-0.064422436
76	0x3e4ed46a	0.20198217
77	0x3e35d377	0.17756449
78	0x3cd64dbd	0.026160115
79	0xbd8a5ee1	-0.06756378
80	0xbde02a5f	-0.10945582
81	0x3d323bdb	0.043514114
82	0x3e4469d6	0.19180998
83	0x3c4ec4e8	0.012620188
84	0xbdd79dcd	-0.10528145
85	0xbcf01c45	-0.029310355
86	0x3e2b666e	0.16738293
87	0x3d48cdd3	0.049024414
88	0xbe1c4d15	-0.1526378
89	0xbe086d0f	-0.13322853
90	0xbdcc5f4e	-0.099791154
91	0x3d0acae0	0.033884883
92	0x3e10c83f	0.14138888
93	0xbd1f0db7	-0.03883144
94	0x3db1dc06	0.08684544
95	0x3e17e9f3	0.14835338
96	0x3c9367e8	0.017993882
97	0xb8f68dd6	-0.00011756613
98	0xbc8c9f06	-0.017165672
99	0xbd59a24c	-0.053133294
100	0x3d5cdb7c	0.053920254
101	0xbdfa1f90	-0.12213051
102	0xbe44182b	-0.19149844
103	0x3e029544	0.12752253
104	0x3e644950	0.22293591
105	0x3dfb80cc	0.122804254
106	0xbc63373a	-0.0138681475
107	0xbd7a41ba	-0.061097838
108	0x3e015597	0.12630306
109	0x3dd00059	0.10156316
110	0x3e3b8cb2	0.1831539
111	0x3e0135b6	0.12618145
112	0xbc8649f3	-0.016392684
113	0x3e69ac0d	0.22819538
114	0xbcd327d7	-0.025775833
115	0x3e12a3e7	0.14320336
116	0xbe4530cc	-0.19256896
117	0xbdb553c0	-0.08853865
118	0x3e0ed047	0.13946639
119	0xbc46a5a7	-0.0121244555
120	0x3c917053	0.017753756
121	0x3e189764	0.14901501
122	0x3e39fc6d	0.18162699
123	0x3d351722	0.044211514
124	0x3de946d3	0.11390462
125	0x3a300061	0.00067139236
126	0x3e448341	0.19190694
127	0x3d8b3575	0.067973055

linear3.weight f4 [16, 128]
0	0xbdfdb075	-0.12387172
1	0xbe4acb3c	-0.1980409
2	0xbe807b26	-0.25093955
3	0xbd3c9b47	-0.04604652
4	0x3d761030	0.06007403
5	0xbdc45a9c	-0.09587595
6	0xbe855809	-0.26043728
7	0xbdc8916d	-0.09793363
8	0xbe16fd6c	-0.1474511
9	0xbe2d4781	-0.16921808
10	0xbe08d171	-0.13361146
11	0xbcf35308	-0.029702678
12	0x3e3eaaee	0.18619892
13	0x3e04e5c8	0.1297828
14	0xbe1ae2f2	-0.15125635
15	0x3c24f35d	0.010067788
16	0x3e73d923	0.238133
17	0xbcaa52c1	-0.020791413
18	0xbd58d1f1	-0.05293459
19	0xbdd2aedc	-0.10287258
20	0x3cf21dea	0.02955528
21	0xbe170c78	-0.1475085
22	0x3e21eb52	0.15812424
23	0x3de6296a	0.11238368
24	0x3d2bb72f	0.041922744
25	0x3e702514	0.23451644
26	0xbdd59185	-0.10428146
27	0xbe37e140	-0.1795702
28	0x3d9a8c43	0.07546284
29	0xbd545d6c	-0.051846907
30	0x3dd54593	0.10413661
31	0x3bd5e691	0.00652773
32	0x3e6d50a9	0.231753
33	0x3cdaae0d	0.026694322
34	0xbdec7e9e	-0.11547588
35	0xbe1e9699	-0.15487136
36	0xbe70dbdf	-0.23521374
37	0x3e141935	0.1446274
38	0xbcaa0a68	-0.020756915
39	0x3cb7d625	0.02244098
40	0xbdbc59a7	-0.09196787
41	0xbce4de8c	-0.02793815
42	0x3d0d63d7	0.034519043
43	0x3bb813fc	0.0056176167
44	0x3b577af7	0.003287969
45	0x3da8b9b7	0.08238547
46	0x3eb5340c	0.3539127
47	0x3ccd565d	0.025065595
48	0xbdc561c5	-0.09637789
49	0xbe5d300a	-0.21600357
50	0x3d8493a1	0.064734705
51	0x3e7759ec	0.24155396
52	0xbe2f2b40	-0.17106342
53	0xbd58b7e0	-0.052909732
54	0x3e3d2f1e	0.18475005
55	0xbc66491d	-0.0140555175
56	0x3de2818d	0.11059866
57	0x3db890dd	0.090120055
58	0xbd9dcc7c	-0.07705018
59	0x3d0bfdd0	0.0341776
60	0xbd00e268	-0.031465918
61	0x3da1173e	0.07865761
62	0xbd955ce9	-0.07293112
63	0x3bad5559	0.0052897152
64	0x3e0c4476	0.13697991
65	0xbee1b48f	-0.44083068
66	0xbe601e24	-0.21886498
67	0xbd692dff	-0.05692863
68	0x3c5a8e61	0.01333961
69	0xbdb8f865	-0.090317525
70	0x3e19c7d4	0.15017635
71	0x3def0663	0.1167114
72	0x3e0d7a5b	0.13816206
73	0x3ef5c71b	0.48003468
74	0x3d6add07	0.057339694
75	0x3d49805c	0.04919468
76	0x3db08235	0.08618585
77	0xbd1d4760	-0.038398147
78	0xbda3213f	-0.079653256
79	0x3ac313ba	0.0014883198
80	0xbcaa7860	-0.020809352
81	0xbdc16f64	-0.09445074
82	0x3de0b931	0.109728225
83	0x3e1831d6	0.14862761
84	0xbe3d354e	-0.18477365
85	0x3e32619a	0.17420045
86	0xbd9140b2	-0.07092418
87	0x3df7f8a3	0.121079706
88	0xbcaf6da1	-0.02141458
89	0x3b733020	0.0037107542
90	0xbf03b9d3	-0.5145542
91	0x3d15be9e	0.03655874
92	0xbe55ec10	-0.20890832
93	0x3e085d3d	0.13316818
94	0x3df0ba13	0.11754241
95	0xbdb70870	-0.08937156
96	0x3e7eb762	0.24874642
97	0xbd852f88	-0.065032065
98	0xbdcb4afd	-0.09926412
99	0x3d5845b2	0.05280084
100	0xbe019547	-0.12654601
101	0x3d8dc6e9	0.06922705
102	0xbcb0997e	-0.021557566
103	0xbdfcd2b4	-0.12344876
104	0xbdae3d19	-0.08507747
105	0xbd7a19fc	-0.061059937
106	0xbdb5ccf7	-0.088769846
107	0xbdf2878c	-0.1184226
108	0x3e01d32b	0.1267821
109	0x3d923072	0.071381465
110	0xbcd900fc	-0.026489727
111	0xbd2bb95c	-0.04192482
112	0x3c54f4d2	0.012997823
113	0xbe8f3e0f	-0.27977034
114	0x3e5b2304	0.21400076
115	0xbcf07109	-0.029350774
116	0xbe0b6797	-0.13613735
117	0x3e56abe6	0.20964012
118	0xbd3048d3	-0.0430382
119	0xbd5bfc4b	-0.053707402
120	0xbda32998	-0.07966918
121	0x3c28e058	0.010307394
122	0x3e611994	0.21982414
123	0x3d932f5a	0.07186766
124	0xbdbd4b9d	-0.09242938
125	0x3de61109	0.11233718
126	0xbd4ef31f	-0.050524827
127	0x3d353c5b	0.044247013
128	0x3dfaca51	0.1224562
129	0x3e71585b	0.23568861
130	0x3e92f3d9	0.28701666
131	0x3e0e54e7	0.13899575
132	0xbc88e575	-0.016710976
133	0x3cc580d7	0.024109287
134	0x3e15caf5	0.14628203
135	0x3dfe7ab1	0.12425745
136	0x3db35e55	0.08758227
137	0x3e89f901	0.26947787
138	0x3e4c4cab	0.19951122
139	0x3c9ac69c	0.018893532
140	0xbda7c5e4	-0.081920415
141	0xbe20d733	-0.15707092
142	0x3e00044a	0.12501636
143	0x3dda6153	0.10663094
144	0xbe5602c2	-0.2089949
145	0x3b99269a	0.004673791
146	0x3e13eb3d	0.14445205
147	0x3dbac35b	0.09119292
148	0xbc10f72f	-0.008847996
149	0x3da46032	0.0802616
150	0xbe8a382e	-0.26995987
151	0x3cc022d3	0.023454105
152	0x3d61cf91	0.05512959
153	0x3c1305c6	0.008973544
154	0x3e05fa90	0.13083863
155	0x3e17be20	0.1481862
156	0xbc63cf33	-0.013904381
157	0x3e035132	0.12823942
158	0xbdb53070	-0.08847129
159	0xbc43e7ad	-0.011957091
160	0xbe6635bf	-0.2248144
161	0x3d9934c9	0.07480771
162	0x3e98932e	0.2979979
163	0x3e379cd4	0.17930919
164	0x3e3098d8	0.17245805
165	0x3df84737	0.12122958
166	0x3e3871fb	0.1801223
167	0x3dc83a18	0.097767055
168	0x3e0d3bc5	0.13792332
169	0x3d603ead	0.054747272
170	0xbc8ccbfd	-0.017187113
171	0x3e0e30a2	0.1388574
172	0x3dea984b	0.11454829
173	0x3dd7dc22	0.10540034
174	0xbf0b9bf3	-0.54534835
175	0xbd04b235	-0.032396514
176	0x3e3f5b42	0.18687156
177	0x3da21e69	0.079159565
178	0x3df6481d	0.12025473
179	0xbe3435c3	-0.17598633
180	0x3e26fa6d	0.16306467
181	0x3d1048b0	0.03522557
182	0x3d67c839	0.05658743
183	0x3d69600d	0.056976367
184	0xbd8e6849	-0.069534846
185	0x3dba2872	0.090897456
186	0x3dd3285a	0.10310431
187	0x3c97a431	0.01851091
188	0x3d8da24d	0.06915722
189	0xbe5f13a3	-0.21784835
190	0x3e2823e0	0.16419935
191	0x3e08ec6e	0.13371441
192	0xbde442f6	-0.11145584
193	0x3ee17af5	0.4403912
194	0x3d1f40dd	0.038880218
195	0x3c5e7e18	0.013579868
196	0xbd8a8ae2	-0.06764771
197	0x3e243e05	0.16039284
198	0x3d65cfbd	0.056106318
199	0x3b41e960	0.0029588565
200	0xbd196f2c	-0.037459537
201	0xbf2165d4	-0.63046
202	0x3be95841	0.0071211164
203	0xbbcb925e	-0.0062125167
204	0x3e0ee557	0.13954674
205	0x3e203468	0.15644991
206	0x3d1e9329	0.03871456
207	0xbc42e8a4	-0.011896286
208	0x3dc4c1be	0.09607266
209	0x3e23a70e	0.15981695
210	0x3d0fbac6	0.03509023
211	0xbdceadf3	-0.10091772
212	0x3dc970fc	0.09836003
213	0x3c97b6bf	0.018519757
214	0x3e1b7d88	0.15184605
215	0xbdccabb7	-0.099936895
216	0xbd917393	-0.07102122
217	0x3da64fc5	0.081206836
218	0x3ee99208	0.45619226
219	0xbbc89441	-0.006121189
220	0x3e58dd20	0.21178102
221	0x3d8d81a5	0.06909493
222	0xbc79c4cf	-0.015244677
223	0x3dfffebb	0.12499758
224	0x3e1eb88b	0.15500085
225	0x3dbf7e36	0.09350245
226	0x3e05f6ad	0.1308238
227	0x3db170c0	0.086640835
228	0xba2564ce	-0.00063092716
229	0x3d8b0971	0.0678891
230	0xbd5564a6	-0.05209794
231	0x3d85d903	0.06535532
232	0xbb909333	-0.0044120788
233	0x3cc30f76	0.023811083
234	0x3d582572	0.052770086
235	0x3db22a20	0.08699441
236	0x3da82638	0.08210415
237	0xbe09806c	-0.13427895
238	0x3bafcacc	0.0053647514
239	0x3e31b943	0.17355828
240	0x3db5faae	0.08885704
241	0x3e0d067f	0.1377201
242	0xbddd6a8a	-0.10811336
243	0x3dbc332c	0.09189448
244	0x3e06a8f6	0.13150391
245	0xbdf116a1	-0.11771894
246	0x3df712f4	0.12064162
247	0xbd63f953	-0.055657696
248	0x3e67e22c	0.22644871
249	0x3db73493	0.089455746
250	0xbb445128	-0.00299556
251	0x3c6518d0	0.013982967
252	0x3cc948aa	0.024570782
253	0xbdae637d	-0.0851507
254	0x3d9645fb	0.073375665
255	0x3d758a7d	0.059946526

linear3.bias f4 [16]
0	0x3d94c42c	0.07263979
1	0xbd244862	-0.040108092
2	0xbcb5c066	-0.02218647
3	0xbc1c2427	-0.009530104
4	0xbd47e14b	-0.04879884
5	0x3cbcd51f	0.023050843
6	0x3de0a3bb	0.10968729
7	0x3d8c6f8f	0.068572156
8	0xbb86cc9a	-0.004113746
9	0x3cd5aab9	0.026082383
10	0xbba828c1	-0.0051318114
11	0x3d982ece	0.07430802
12	0xbccec46e	-0.02524015
13	0xbc8deee9	-0.017325835
14	0x3d68b1cd	0.05681019
15	0x3e05e3b8	0.13075149

fc.weight f4 [1, 16]
0	0x3e8d7083	0.27624902
1	0xbe2d18c2	-0.16903976
2	0xbe90f5cf	-0.28312537
3	0xbeb69b86	-0.3566553
4	0xbe81773e	-0.25286287
5	0x3ec4a663	0.38408193
6	0xbe9890bd	-0.29797927
7	0x3e698faf	0.22808717
8	0x3f026f1d	0.50950795
9	0x3ec2ed3e	0.38071626
10	0xbe8e290e	-0.27765697
11	0xbe14ee25	-0.1454397
12	0xbe7f71a4	-0.24945694
13	0x3d3a969e	0.045553796
14	0xbe000a6d	-0.12503977
15	0x3e8660aa	0.26245624
